Weights/policy_network.pt (torch_old, 330831 bytes, 8 tensors)

weight f4 [256, 59]
0.07364506 0.01430697 0.104799494 0.091498986 0.2436336 0.10318184 -0.39213368 1.1856431
0.831043 0.10895973 -0.1776349 0.09992888 -0.0061881277 0.15348512 -0.0011126697 0.16368842
-0.61172724 0.05240627 -0.12608854 0.004477024 -0.082991466 -0.022935694 0.09103607 0.10008866
-0.007873495 -0.1435946 1.3717549 -0.6816818 -0.326237 0.0050394046 0.045619383 0.1483066
0.0028582513 0.04745183 0.004389966 -2.2506103e-05 -0.05417071 -0.40111944 0.73667884 0.3756081
0.03155415 0.079507425 -0.033256147 0.032676086 0.10031484 0.039679945 0.07381624 0.24537642
-1.0933335 0.33119056 1.3226863 -0.21591349 -0.3739264 -0.25340983 -0.3411068 0.00378908
-0.025089942 0.06712731 -0.06640656 0.048832618 0.046448085 -0.11394317 0.0028056977 0.048811793
-0.10916737 -0.11691318 -0.8462971 -1.3748306 -1.1692039 0.35201612 -0.12027789 -0.1489343
-0.14017911 -0.05850589 -0.06049235 -0.25954983 -1.6663018 -0.24174458 0.22929716 0.11916357
-0.027577747 0.07585795 -0.07433858 -0.13813576 -0.23055996 1.4509481 -0.24825764 -0.17133711
0.020003576 0.022224937 0.026784599 0.056629512 0.08534747 -0.08118669 0.109985106 -0.01882753
0.8507004 1.4990904 0.50758743 0.12674658 0.026618276 0.096120976 -0.122200415 -0.0778624
-0.14329903 0.09274598 -0.01252196 1.2779243 0.12632248 0.59926724 0.31413308 0.16932362
0.12477832 -0.021412924 -0.100595556 0.09851523 0.15311778 -0.18099242 -0.092733525 0.08273939
-0.061479375 -0.02804407 0.021636456 0.0027169199 -0.0053663673 -0.12316521 0.07958075 -0.033808097
-0.034644384 -0.0358819 0.04493066 0.10000761 -0.053516615 -0.13725795 0.10741636 0.07954507
-0.019852623 0.033886872 -0.076209575 -0.08518821 0.11452415 0.09223267 0.076950386 -0.1365968
0.016741099 -0.11596656 0.01731393 -0.012474716 -0.024176616 -0.11902976 -0.13208352 -0.08891344
-0.06013338 0.08973248 -0.025757676 -0.00091883406 -0.051708825 0.07042903 0.109016456 -0.06004094
-0.087258376 -0.11232365 -0.08582067 -0.05216298 0.08768984 -0.07744799 -0.017080223 -0.13249971
-0.024211558 0.064303264 -0.04031193 0.07337796 -0.013729151 0.084884316 -0.026307743 -0.0039079767
-0.11559663 -0.1891733 -0.044733513 -0.18153954 -0.04025967 0.13011925 -0.3573546 0.40367216
0.092179745 -0.15076852 -0.03459779 0.054263722 0.05156072 -0.0064546433 -0.032782372 -0.11229511
1.153647 -0.6212301 0.028547365 0.25964254 -0.017892828 -0.036070496 -0.09963998 -0.118571065
0.031868152 -0.17697337 -0.19522333 0.2701022 -1.0129195 -0.151891 -0.049820896 0.045197353
0.092516586 0.0676678 0.024003278 -0.18763609 -0.05860612 -0.14780746 0.4495945 -1.0525558
0.09891598 -0.4483639 -0.23060767 -0.08722504 -0.015333859 -0.16762504 -0.060494453 -0.12857053
-0.1715197 -0.11186427 0.09838757 -0.09622974 0.06117531 -0.21891797 -0.41904804 -0.27496505
0.2509618 -0.9818558 -0.75237554 -0.09806166 0.012473964 -0.14235854 -0.11766583 0.014080518
0.07858218 0.10692876 -0.14218467 -0.026730932 -0.044315994 0.100594416 -0.080108315 -0.12837979
0.027625708 -0.11697628 -0.099036425 -0.04962843 0.012016101 -0.05087641 0.052892353 0.07469555
00000000: 39d3 963d c867 6a3c 1ea1 d63d d263 bb3d
00000010: 167b 793e 0051 d33d bfc5 c8be 27c3 973f
00000020: 3cbf 543f 4726 df3d ece5 35be 83a7 cc3d
00000030: c7c5 cabb 342b 1d3e 00d7 91ba f09d 273e
00000040: 289a 1cbf f5a7 563d 5b1d 01be 00b4 923b
00000050: 6ef7 a9bd a3e3 bbbc 1e71 ba3d 49fb cc3d
00000060: d5ff 00bc 760a 13be aa95 af3f b382 2ebf
00000070: 8908 a7be 9721 a53b 64db 3a3d afdd 173e
00000080: 8051 3b3b da5c 423d b4d9 8f3b 7dcb bcb7
00000090: 1be2 5dbd 875f cdbe fc96 3c3f b44f c03e
000000a0: ed3e 013d cad4 a23d 9937 08bd 5cd7 053d
000000b0: de71 cd3d 7087 223d f82c 973d f543 7b3e
000000c0: 5af2 8bbf cf91 a93e c94d a93f 6d18 5dbe
000000d0: 4873 bfbe efbe 81be 8da5 aebe 3752 783b
000000e0: 6c89 cdbc 0b7a 893d 2a00 88bd b604 483d
000000f0: 5940 3e3d 095b e9bd ccdf 373b e0ee 473d
00000100: 2493 dfbd 2d70 efbd eda6 58bf 73fa afbf
00000110: 79a8 95bf 753b b43e 4154 f6bd 3c82 18be
00000120: 1d8b 0fbe dfa3 6fbd d4c6 77bd b7e3 84be
00000130: 6149 d5bf e48b 77be e0cc 6a3e 080c f43d
00000140: baea e1bc 6a5b 9b3d d33e 98bd 7673 0dbe
00000150: e917 6cbe abb8 b93f 4037 7ebe ff72 2fbe
00000160: 8ade a33c 1211 b63c 606b db3c 59f4 673d
00000170: a8ca ae3d 3545 a6bd df3f e13d 313c 9abc
00000180: 80c7 593f 32e2 bf3f 40f1 013f dbc9 013e
00000190: 920e da3c 13db c43d 3644 fabd 5276 9fbd
000001a0: fbbc 12be 9bf1 bd3d e828 4dbc 0693 a33f
000001b0: ae5a 013e 9469 193f 0dd6 a03e 2c63 2d3e
000001c0: c78b ff3d 286a afbc 0b05 cebd 5ac2 c93d
000001d0: e8ca 1c3e 1456 39be 13eb bdbd 4573 a93d
000001e0: ccd1 7bbd adbc e5bc f03e b13c 5a0e 323b
000001f0: 5ad8 afbb 0b3e fcbd 3bfb a23d 5c7a 0abd
00000200: 45e7 0dbd e6f8 12bd 3609 383d cad0 cc3d
00000210: 3d34 5bbd 598d 0cbe 1cfd db3d 87e8 a23d
00000220: f8a1 a2bc f6cc 0a3d c413 9cbd 2877 aebd
00000230: a38b ea3d 7be4 bc3d 2a98 9d3d 08e0 0bbe
00000240: a124 893c e07f edbd f1d5 8d3c c062 4cbc
00000250: 0a0e c6bc e0c5 f3bd e740 07be 4018 b6bd
00000260: 6b4e 76bd aac5 b73d c301 d3bc e9dd 70ba
00000270: a2cc 53bd 183d 903d 0544 df3d 7ded 75bd
00000280: 85b4 b2bd f109 e6bd bfc2 afbd d9a8 55bd
00000290: bb96 b33d 0d9d 9ebd d3eb 8bbc 01ae 07be
000002a0: 5157 c6bc 6eb1 833d 1f1e 25bd 2f47 963d
000002b0: 3cf0 60bc d4d7 ad3d 5683 d7bc 7c0e 80bb
000002c0: edbd ecbd a5b6 41be 7d3a 37bd 80e5 39be
000002d0: 53e7 24bd fb3d 053e 2ff7 b6be 1eae ce3e
000002e0: bcc8 bc3d 1063 1abe 6ab6 0dbd a343 5e3d
000002f0: 5531 533d 7981 d3bb cf46 06bd fbfa e5bd
00000300: b4aa 933f f008 1fbf 2adc e93c deef 843e
00000310: fb93 92bc a8be 13bd 0c10 ccbd 63d5 f2bd
00000320: 2e88 023d 8238 35be a0e8 47be d64a 8a3e
00000330: 59a7 81bf 5089 1bbe ff10 4cbd dc20 393d
00000340: 5679 bd3d 6a95 8a3d 86a2 c43c ad23 40be
00000350: f90c 70bd d75a 17be 4031 e63e 26ba 86bf
00000360: 7694 ca3d f48f e5be 6b24 6cbe 0ba3 b2bd
00000370: de3a 7bbc e6a5 2bbe 08c9 77bd fea7 03be
00000380: dca2 2fbe 1819 e5bd 6c7f c93d 1914 c5bd
00000390: f692 7a3d 082c 60be 778d d6be 38c8 8cbe
000003a0: 117e 803e e75a 7bbf af9b 40bf 8dd4 c8bd
000003b0: 995f 4c3c 70c6 11be c8fa f0bd f9b1 663c
000003c0: b2ef a03d 77fd da3d dc98 11be d4fa dabc
000003d0: b084 35bd 7204 ce3d d40f a4bd fe75 03be
000003e0: 4f4f e23c 4391 efbd 9cd3 cabd 2e47 4bbd
000003f0: 2edf 443c c863 50bd a7a5 583d fbf9 983d

bias f4 [256]
0.14630622 0.076879986 -0.04180316 -0.113649175 0.07083434 0.07001465 0.14639318 0.06469269
-0.094602376 0.04163128 0.13156334 -0.11993506 0.038818397 -0.02317338 -0.11252482 -0.02846912
-0.15348846 0.2121935 -0.02707129 -0.11037826 0.25746995 0.030610561 0.11793505 0.03188853
0.065023646 0.038154647 -0.011446422 -0.16249001 0.0018178088 0.1135942 0.007224404 -0.13089041
-0.109329216 -0.094502084 -0.12912521 -0.05434481 -0.11534422 -0.13422091 -0.05411561 -0.13876449
-0.05155578 -0.017853325 -0.18684721 -0.058680356 -0.1261193 0.05070026 -0.026557775 -0.094002776
-0.13238473 -0.04005199 0.04936435 -0.087916 -0.014289237 0.042190395 0.23128843 -0.15591337
-0.07204622 0.034953233 -0.015572936 0.026984496 -0.16131939 0.062118597 -0.010056254 -0.010179168
-0.03454849 -0.099767156 -0.16218355 -0.030555917 -0.13249232 -0.116352886 -0.1526868 0.046053044
0.06023476 -0.049373742 0.065666504 0.055002443 -0.14516215 0.05105241 0.07890365 0.0054335976
0.042902358 -0.063514054 -0.025226314 -0.063479625 0.026289709 -0.079768576 0.123758934 0.030332528
-0.050050665 0.0426154 0.04753608 0.0264131 -0.09434516 -0.07475177 0.092276245 0.0017565691
0.06880143 -0.028065449 -0.10190656 -0.12458919 0.17157258 -0.10137671 0.059959523 -0.031790975
0.14671616 0.08058212 -0.08298602 0.19777727 -0.118133426 0.12156326 -0.040481016 -0.0466416
0.13303284 -0.11495994 -0.10819889 -0.10484649 0.088822626 -0.052731674 -0.021337677 -0.07001077
-0.013147637 -0.09560102 -0.07207012 -0.05879204 0.09894767 -0.069389164 -0.112520754 -0.15859531
-0.06228376 -0.040837985 -0.05534189 0.048385516 0.15004408 0.063137166 0.026382893 0.010531995
-0.06571971 -0.113033146 -0.07813508 -0.02947894 0.020447884 0.035062708 0.15851964 -0.1439816
-0.02657154 -0.14628229 0.12400508 -0.12559544 -0.032620016 0.08890478 -0.064138226 -0.03905072
0.09431289 0.031375747 0.05503793 -0.014131317 0.066411845 0.075285666 0.11878284 0.073928535
0.16735116 -0.020384293 0.042298872 -0.12771082 -0.04152287 0.09398642 -0.06556761 0.0571819
-0.14837103 -0.11284749 0.038530394 -0.117007725 0.04687056 0.07051625 -0.12461716 -0.06440146
-0.03729075 -0.07559218 -0.10054616 0.022607466 -0.116293855 0.05346324 0.08297549 0.0947257
0.016223876 -0.060800675 0.06532896 0.011217318 0.047482666 -0.04992793 -0.09244902 -0.028046962
-0.16222146 0.11239556 -0.11017201 -0.12347662 0.0430367 -0.10657352 0.12409547 -0.17674887
0.11614667 0.101656005 -0.13004373 0.017833672 -0.018981691 0.11278259 -0.01952114 -0.095156536
0.12554403 -0.112815045 0.1820099 0.09283893 -0.14257732 0.023749566 -0.07226868 -0.102597736
0.1027352 -0.03341686 -0.1495524 0.1553262 0.086974114 -0.016557712 -0.14884329 -0.14093639
0.22027287 0.07144487 -0.083683096 0.03364601 -0.16138355 -0.13412143 -0.19800471 -0.066915
-0.06215292 -0.15295295 0.10493677 -0.124864765 0.21523443 0.027568527 -0.17768581 -0.15538041
0.034311082 0.036230903 0.027473869 0.099252865 0.0011047442 0.03345606 -0.0038208726 0.051269185
-0.05287628 0.0369643 -0.17974158 -0.057470765 -0.05159596 0.0481283 0.011270518 0.05369764
00000000: 4cd1 153e 4173 9d3d ca39 2bbd e6c0 e8bd
00000010: 9811 913d d763 8f3d 18e8 153e 9a7d 843d
00000020: e4be c1bd 9085 2a3d 8ab8 063e 83a0 f5bd
00000030: 0a00 1f3d 1ad6 bdbc 6a73 e6bd 1238 e9bc
00000040: 142c 1dbe 4149 593e 9cc4 ddbc ff0d e2bd
00000050: 1ad3 833e 00c3 fa3c ee87 f13d 8c9d 023d
00000060: 1e2b 853d 0c48 1c3d c689 3bbc c863 26be
00000070: 8b43 ee3a 13a4 e83d b1ba ec3b 2308 06be
00000080: ffe7 dfbd 4f8a c1bd 6639 04be aa98 5ebd
00000090: 9739 ecbd 3571 09be 54a8 5dbd 4718 0ebe
000000a0: 272c 53bd 2341 92bc e054 3fbe d05a 70bd
000000b0: 6b25 01be 13ab 4f3d b18f d9bc 8784 c0bd
000000c0: dd8f 07be 8e0d 24bd 4632 4a3d 4e0d b4bd
000000d0: 671d 6abc d6cf 2c3d e0d6 6c3e c1a7 1fbe
000000e0: f88c 93bd 1f2b 0f3d a125 7fbc 970e dd3c
000000f0: e930 25be 1270 7e3d fdc2 24bc 86c6 26bc
00000100: b882 0dbd b952 ccbd 7213 26be 6750 fabc
00000110: 11ac 07be 6c4a eebd ee59 1cbe 1ea2 3c3d
00000120: b9b8 763d 1f3c 4abd 297c 863d 3e4a 613d
00000130: 63a5 14be 551c 513d 3d98 a13d 520c b23b
00000140: 62ba 2f3d a813 82bd 6aa7 cebc 9b01 82bd
00000150: 845d d73c b55d a3bd 5375 fd3d ec7b f83c
00000160: ed01 4dbd 7c8d 2e3d 31b5 423d 4960 d83c
00000170: 0938 c1bd 7517 99bd 54fb bc3d ae3c e63a
00000180: c4e7 8c3d 83e9 e5bc 63b4 d0bd 9e28 ffbd
00000190: b9b0 2f3e 989e cfbd 1e98 753d 4137 02bd
000001a0: c33c 163e 3d08 a53d 93f4 a9bd 2086 4a3e
000001b0: f0ef f1bd 29f6 f83d 6ccf 25bd 430b 3fbd
000001c0: c339 083e 1e70 ebbd 6197 ddbd c2b9 d6bd
000001d0: a3e8 b53d 2bfd 57bd 5acc aebc ce61 8fbd
000001e0: 3069 57bc 78ca c3bd 8099 93bd eccf 70bd
000001f0: 13a5 ca3d e81b 8ebd 4871 e6bd cf66 22be
00000200: 421d 7fbd bb45 27bd 2dae 62bd e42f 463d
00000210: 28a5 193e 0f4e 813d f020 d83c 648e 2c3c
00000220: 0e98 86bd ec7d e7bd 4905 a0bd d17d f1bc
00000230: 5282 a73c ea9d 0f3d f952 223e ea6f 13be
00000240: 8fac d9bc 06cb 15be 60f6 fd3d 179c 00be
00000250: 919c 05bd b613 b63d e75a 83bd a6f3 1fbd
00000260: 1e27 c13d db83 003d 746f 613d 0a87 67bc
00000270: ef02 883d 5f2f 9a3d 6b44 f33d d867 973d
00000280: 1a5e 2b3e f6fc a6bc 9541 2d3d a0c6 02be
00000290: e313 2abd f47b c03d 5048 86bd 9137 6a3d
000002a0: 93ee 17be 961c e7bd 0cd2 1d3d bfa1 efbd
000002b0: 58fb 3f3d d36a 903d 4837 ffbd eae4 83bd
000002c0: 2fbe 18bd 13d0 9abd 25eb cdbd 4b33 b93c
000002d0: 792b eebd 45fc 5a3d 0eef a93d 8cff c13d
000002e0: efe7 843c 210a 79bd 31cb 853d d7c8 373c
000002f0: 2f7d 423d 3b81 4cbd e955 bdbd bec2 e5bc
00000300: 621d 26be a52f e63d dda1 e1bd 4fe1 fcbd
00000310: 4047 303d 3843 dabd c425 fe3d a8fd 34be
00000320: 4ede ed3d 0631 d03d 2f2a 05be ec17 923c
00000330: 7e7f 9bbc 8ffa e63d ccea 9fbc 6ee1 c2bd
00000340: 9d8e 003e 930b e7bd ce60 3a3e 5622 be3d
00000350: caff 11be 738e c23c 9a01 94bd c31e d2bd
00000360: d566 d23d 1ee0 08bd 4424 19be d50d 1f3e
00000370: 7c1f b23d 0aa4 87bc 606a 18be a151 10be
00000380: 368f 613e b051 923d 0b62 abbd 66d0 093d
00000390: bb41 25be 2157 09be bfc1 4abe bb0a 89bd
000003a0: 0f94 7ebd b39f 1cbe 17e9 d63d 19b9 ffbd
000003b0: 6a66 5c3e 64d7 e13c 45f3 35be 0b1c 1fbe
000003c0: c789 0c3d db66 143d e110 e13c 1645 cb3d
000003d0: 10cd 903a 3909 093d 9b67 7abb a3ff 513d
000003e0: cc94 58bd e167 173d 2d0e 38be 7766 6bbd
000003f0: 4956 53bd 2e22 453d fba7 383c 0ef2 5b3d

weight f4 [256, 256]
-0.10075537 -0.106969245 0.056873895 -0.054421626 0.017435757 0.0954358 -0.009011406 -0.18047658
-0.22488289 -0.07815917 -0.048013166 0.028289802 0.011028975 -0.09804029 -0.053211518 -0.05408162
-0.08627565 -0.039433345 -0.08070549 -0.044801578 -0.1494105 0.02318694 -0.008765753 0.03143174
-0.049098317 0.0046581747 -0.02623187 -0.058381822 -0.16402498 -0.06990746 -0.081212066 0.016012436
-0.035895526 -0.208665 0.021011233 -0.20564237 0.06380399 -0.018626072 -0.062595606 -0.046486557
0.048064988 0.037881956 0.044725135 0.012856662 -0.07878665 -0.045155227 0.12793234 -0.107051685
0.037000485 -0.1744716 -0.012361246 -0.036413647 -0.09891884 -0.009523509 0.009092552 -0.086621694
-0.09043475 0.006246008 -0.10360909 0.015436867 -0.2049683 0.054840416 -0.08638106 0.008026523
0.059431702 -0.028261354 -0.15044203 0.080447495 -0.05013197 -0.012518489 -0.12088966 -0.28026277
0.005825569 -0.24965963 0.04848252 -0.0946536 -0.049358867 -0.34087613 -0.024403969 0.0064032758
-0.19696653 -0.32873598 -0.0987129 -0.023177579 -0.045575935 -0.2616038 0.09528303 -0.34505767
-0.27969593 -0.13418704 -0.106000185 -0.13299003 -0.06906452 -0.0834976 -0.18739937 0.050840363
0.03403431 0.019724928 -0.20504552 -0.017706772 -0.07724923 -0.031599857 -0.12436607 -0.15333116
-0.038783934 -0.15981078 -0.026729029 -0.034861527 -0.057656825 -0.16198099 -0.025156938 0.05180476
0.012506564 0.05140258 -0.148729 -0.02678202 -0.0030357873 -0.09292486 0.041930232 0.09608964
0.0027819236 -0.2859044 -0.07059462 -0.06750915 -0.11822683 -0.14987056 0.005131297 0.0328094
-0.03766595 -0.11017794 0.049876183 -0.116178304 -0.36081758 -0.15371388 0.06925544 -0.09124595
0.055548295 0.13283052 0.06821073 -0.017447608 -0.15475027 -0.098576225 0.17277737 0.16736788
-0.00022218747 0.17909282 -0.01864573 -0.012824032 -0.082362756 0.0036962628 -0.21209766 -0.008218987
0.015706401 0.0019537245 -0.05071135 0.0059478767 -0.06985446 -0.02120384 -0.26191798 0.032312643
-0.2675336 -0.08544852 -0.04516278 0.078723244 9.011476e-05 0.0014762635 -0.2013449 -0.10339049
-0.08462547 -0.023598272 0.03953658 0.035705794 -0.14575881 0.061234206 0.005368294 -0.031762727
-0.024503201 -0.0039302427 0.06079102 0.030566778 0.04823951 0.0034179727 0.025259594 -0.092940114
-0.17994362 -0.035499286 -0.14645085 -0.000909038 -0.09095721 -0.14189377 -0.058336847 -0.03261992
-0.21042243 0.07127014 -0.052668687 -0.04076099 -0.05143279 -1.4823153e-05 0.053442772 -0.16512163
-0.17636313 -0.048883785 -0.024261659 -0.017256603 -0.025837466 -0.15289976 -0.1089988 -0.058146603
-0.094566375 0.012904175 -0.03554199 -0.04711216 -0.06456591 -0.08675688 -0.1636084 5.681783e-05
-0.2265758 0.075443156 -0.068266176 -0.05874286 0.0062230784 -0.05478717 -0.1400154 -0.20656514
-0.10034969 -0.08072887 0.09771418 -0.2747001 -0.27503213 -0.05519157 -0.2695856 0.09424681
-0.116311215 -0.15003397 -0.09630761 -0.107949816 -0.1270761 -0.1717072 0.06468442 0.06658479
-0.06732396 0.021051982 -0.1140838 -0.3785166 -0.03769612 -0.13193595 -0.035227768 -0.020163776
0.058255926 -0.066651694 -0.044004064 -0.28189436 -0.05471987 0.03159947 -0.04875417 0.026239797
00000000: d558 cebd b112 dbbd 9af4 683d 36e9 5ebd
00000010: 6fd5 8e3c d873 c33d 94a4 13bc dace 38be
00000020: b347 66be ea11 a0bd 74a9 44bd 04c0 e73c
00000030: e0b2 343c 59c9 c8bd 52f4 59bd b084 5dbd
00000040: 4ab1 b0bd dc84 21bd ec48 a5bd dc81 37bd
00000050: 11ff 18be 8af2 bd3c 3c9e 0fbc 91be 003d
00000060: 511b 49bd 9aa3 983b 38e4 d6bc c721 6fbd
00000070: 2af6 27be a42b 8fbd 8352 a6bd 832c 833c
00000080: 3007 13bd 47ac 55be c01f ac3c ea93 52be
00000090: abab 823d b495 98bc 2032 80bd b068 3ebd
000000a0: cbdf 443d 1c2a 1b3d b431 373d c0a4 523c
000000b0: e55a a1bd b0f4 38bd b200 033e ea3d dbbd
000000c0: d28d 173d afa8 32be d386 4abc 7a26 15bd
000000d0: f695 cabd 7e08 1cbc edf8 143c b766 b1bd
000000e0: db35 b9bd 50ab cc3b 0131 d4bd eaea 7c3c
000000f0: 36e3 51be 58a0 603d 8ee8 b0bd ad81 033c
00000100: a86e 733d 5b84 e7bc 7a0d 1abe a8c1 a43d
00000110: 2e57 4dbd 591a 4dbc 0095 f7bd 9a7e 8fbe
00000120: 6ae4 be3b c6a6 7fbe 9b95 463d bfd9 c1bd
00000130: 862c 4abd 5187 aebe d5ea c7bc 92d2 d13b
00000140: 98b1 49be 1550 a8be fd29 cabd e8de bdbc
00000150: d5ad 3abd eff0 85be c023 c33d 66ab b0be
00000160: 4e34 8fbe 5468 09be a016 d9bd 8a2e 08be
00000170: b371 8dbd ca00 abbd 9fe5 3fbe fc3d 503d
00000180: 9067 0b3d 2c96 a13c 74f7 51be cb0d 91bc
00000190: d834 9ebd da6e 01bd a3b3 febd d802 1dbe
000001a0: e7db 1ebd 70a5 23be d6f6 dabc f6ca 0ebd
000001b0: 9029 6cbd 58de 25be ec15 cebc 3a31 543d
000001c0: 55e8 4c3c 838b 523d 6a4c 18be f865 dbbc
000001d0: 0ff4 46bb 644f bebd 09bf 2b3d a5ca c43d
000001e0: ef50 363b 1062 92be ea93 90bd 3d42 8abd
000001f0: e920 f2bd ab77 19be 7024 a83b 2663 063d
00000200: 9c47 1abd f9a4 e1bd f84a 4c3d e4ee edbd
00000210: 15bd b8be 2c67 1dbe ccd5 8d3d 28df babd
00000220: 9c86 633d b904 083e 11b2 8b3d 49ee 8ebc
00000230: db76 1ebe 55e2 c9bd 8dec 303e 7c62 2b3e
00000240: fffa 68b9 1c64 373e eebe 98bc e41b 52bc
00000250: cead a8bd 003d 723b 2130 59be eea8 06bc
00000260: b6aa 803c 0f0a 003b b4b6 4fbd 68e6 c23b
00000270: db0f 8fbd adb3 adbc 1d1a 86be 435a 043d
00000280: 2afa 88be a2ff aebd 9bfc 38bd a739 a13d
00000290: fefb bc38 2f7f c13a 5c2d 4ebe 65be d3bd
000002a0: 1e50 adbd 2a51 c1bc 1cf1 213d 3d40 123d
000002b0: cc41 15be b8d0 7a3d 84e8 af3b a219 02bd
000002c0: f0ba c8bc 44c9 80bb 0100 793d 2e67 fa3c
000002d0: cb96 453d 1100 603b 35ed ce3c 6357 bebd
000002e0: 2443 38be b367 11bd 36f7 15be 824c 6eba
000002f0: c647 babd 9a4c 11be 9ef2 6ebd 779c 05bd
00000300: fa78 57be 14f6 913d 1fbb 57bd fff4 26bd
00000310: 30ab 52bd f5b0 78b7 cfe6 5a3d a515 29be
00000320: 8998 34be 5d3a 48bd 63c0 c6bc b85d 8dbc
00000330: 18a9 d3bc c191 1cbe c33a dfbd 222b 6ebd
00000340: 04ac c1bd 086c 533c 7a94 11bd aef8 40bd
00000350: 223b 84bd 97ad b1bd f688 27be ae4f 6e38
00000360: 7d03 68be f181 9a3d 23cf 8bbd 5a9c 70bd
00000370: f7ea cb3b 8368 60bd 3260 0fbe d085 53be
00000380: 2384 cdbd 2e55 a5bd 5f1e c83d 7ea5 8cbe
00000390: 03d1 8cbe 8e10 62bd 2007 8abe 7904 c13d
000003a0: 9334 eebd 81a2 19be ed3c c5bd cb14 ddbd
000003b0: 3d20 02be 03d4 2fbe 4479 843d 9b5d 883d
000003c0: 25e1 89bd 3575 ac3c c4a4 e9bd eecc c1be
000003d0: 3f67 1abd 381a 07be fe4a 10bd 812e a5bc
000003e0: c49d 6e3d af80 88bd 9b3d 34bd 7554 90be
000003f0: f121 60bd 726e 013d 74b2 47bd d8f4 d63c

bias f4 [256]
0.012161367 0.29479006 0.3762964 -0.027142772 0.40296954 -0.045949433 -0.3802733 -0.03234456
0.09164911 -0.08665051 -0.19745852 -0.029292228 0.16823663 -0.032325406 -0.01259192 -0.1910766
-0.08682913 0.20361398 0.017183509 0.03703811 -0.039973732 -0.08786715 0.19683164 -0.020432172
0.01601411 -0.19728744 -0.052965865 -0.48213252 -0.026227226 -0.19764291 -0.117414445 -0.38477266
0.28863934 0.11647333 0.093953274 0.15812938 -0.0074980245 -0.10344863 -0.028626718 0.104800195
-0.4191665 -0.016374866 0.33665603 -0.1377679 -0.406894 -0.2585928 -0.0022985998 0.32275236
-0.25040576 -0.06271933 0.2639072 -0.16477993 -0.091070384 0.20654845 0.0659457 -0.048986495
0.019903522 0.01011375 -0.0746659 -0.33246624 -0.0941954 -0.42261285 -0.052864686 -0.1108725
-0.10186383 -0.04555263 0.061143644 0.5281646 -0.010705358 0.043262605 -0.2694657 -0.055773214
-0.008874874 0.11508422 0.15649986 -0.056273628 -0.101955414 -0.0029488695 0.22333463 -0.060585946
-0.090116486 0.095873654 -0.08473251 -0.1696771 -0.18058036 -0.05254617 -0.04067432 0.05336892
0.05837266 0.19891761 -0.02541831 0.19604497 0.20738861 0.30224767 -0.18268147 -0.24377823
-0.020192532 -0.22052433 -0.37868658 0.15925243 -0.26372617 -0.28727934 -0.09555805 -0.06522776
0.286831 0.10828031 -0.07296694 -0.07535554 -0.07811131 -0.011295591 -0.038537674 -0.16682668
0.14576656 0.11256095 0.18155342 0.17525172 -0.006514897 0.12778167 -0.09329368 -0.34985086
0.031792838 0.17105526 -0.19722779 0.38991213 -0.068105355 0.32936454 0.018001249 -0.18832092
0.03461715 -0.3358296 0.24430351 0.15047053 0.13652539 -0.27211693 -0.031912297 0.15342668
-0.6145295 -0.36174318 -0.19148012 -0.3190244 0.0055658827 0.15747 -0.0041282973 -0.025521517
-0.04678732 -0.34882742 -0.07845202 -0.012724445 -0.11722115 0.04744161 -0.1310113 0.19024903
-0.4767653 -0.042136997 -0.23393586 -0.01102345 -0.018545823 -0.07599552 -0.07376169 0.22156182
-0.2262305 -0.045947224 -0.3698073 -0.10624678 0.028292889 -0.4633757 -0.0065933475 -0.14339429
-0.47963816 0.124346845 -0.10818235 -0.11128787 0.29823655 -0.11138363 0.09854006 -0.20434836
0.005771684 -0.09697122 0.08042241 -0.3544608 0.018859288 -0.0826356 0.1867147 -0.078976214
-0.03424261 0.17137791 -0.032085396 -0.06842084 -0.14003068 -0.06765815 -0.22325414 -0.36079448
-0.053252313 -0.1616297 0.19863255 -0.13607486 0.09833309 0.24011996 0.24112311 -0.021953681
-0.023944244 -0.17044479 0.12620057 0.009279984 0.3954759 -0.053106073 -0.08758453 0.42585084
-0.06570097 -0.24629854 -0.07318114 -0.6075629 0.22715583 0.3987214 -0.007907744 0.079844914
0.028803073 0.40552503 -0.039445 -0.26070076 -0.11439692 -0.032824423 -0.069948606 -0.07934006
-0.20101276 0.0045990665 -0.09381482 -0.05347698 -0.21384265 0.29048386 -0.07824098 -0.4389103
0.004072535 0.0334708 -0.07044666 0.107955836 -0.014742432 -0.23206185 -0.04330251 0.45608968
-0.31796327 -0.2440971 0.010445389 -0.13184665 -0.728902 0.009350251 -0.06544312 0.017281031
0.5677539 0.038755942 -0.0145927975 -0.0747504 -0.24292228 -0.07619373 -0.26465088 0.46232665
00000000: 7840 473c b9ee 963e eca9 c03e 855a debc
00000010: 0652 ce3e 7935 3cbd 2fb3 c2be bb7b 04bd
00000020: 87b2 bb3d d375 b1bd 9132 4abe 41f6 efbc
00000030: 3946 2c3e a567 04bd 574e 4ebc 96a9 43be
00000040: 79d3 b1bd 2f80 503e 6ec4 8c3c 46b5 173d
00000050: 7fbb 23bd b1f3 b3bd 3c8e 493e 5f61 a7bc
00000060: 0630 833c b805 4abe bcf2 58bd 13da f6be
00000070: 7bda d6bc e762 4abe fc76 f0bd ec00 c5be
00000080: 89c8 933e 9289 ee3d 936a c03d abec 213e
00000090: fdb1 f5bb e0dc d3bd 9482 eabc 7ca1 d63d
000000a0: fe9c d6be 9524 86bc 2e5e ac3e 0713 0dbe
000000b0: 6954 d0be 4766 84be 1ba4 16bb cc3f a53e
000000c0: 2f35 80be fe72 80bd d81e 873e 12bc 28be
000000d0: 1c83 babd 7081 533e 8a0e 873d 10a6 48bd
000000e0: b60c a33c 24b4 253c 6fea 98bd 0439 aabe
000000f0: 85e9 c0bd b660 d8be a488 58bd 1f11 e3bd
00000100: fc9d d0bd 6595 3abd c271 7a3d cc35 073f
00000110: 8765 2fbc 2134 313d 69f7 89be 7472 64bd
00000120: eb67 11bc 47b1 eb3d 8041 203e 2d7f 66bd
00000130: 00ce d0bd d241 41bb d5b1 643e f828 78bd
00000140: fe8e b8bd 6859 c43d 3d88 adbd d5bf 2dbe
00000150: 0fea 38be a73a 57bd 1e9a 26bd 5e99 5a3d
00000160: 2c18 6f3d 0fb1 4b3e 0f3a d0bc 03c0 483e
00000170: ae5d 543e 35c0 9a3e da10 3bbe 00a1 79be
00000180: cf6a a5bc 21d1 61be 35e3 c1be 1213 233e
00000190: 1e07 87be 4716 93be f0b3 c3bd 2296 85bd
000001a0: 83db 923e 11c2 dd3d b16f 95bd 0154 9abd
000001b0: d3f8 9fbd 2411 39bc aed9 1dbd 9dd4 2abe
000001c0: d443 153e 5b86 e63d 24e9 393e 3075 333e
000001d0: eb7a d5bb 33d9 023e c210 bfbd a71f b3be
000001e0: 3539 023d 1c29 2f3e 15f6 49be 90a2 c73e
000001f0: d27a 8bbd 78a2 a83e 5b77 933c 33d7 40be
00000200: b6ca 0d3d dbf1 abbe b32a 7a3e f214 1a3e
00000210: 50cd 0b3e e952 8bbe 78b6 02bd e21b 1d3e
00000220: ce51 1dbf 6736 b9be 5d13 44be 2b57 a3be
00000230: 0262 b63b d13f 213e ab46 87bb 8012 d1bc
00000240: 10a4 3fbd 8299 b2be 74ab a0bd 317a 50bc
00000250: a411 f0bd 2252 423d d427 06be a4d0 423e
00000260: 951a f4be d897 2cbd e28c 6fbe b39b 34bc
00000270: 69ed 97bc 8aa3 9bbd 5e10 97bd 1ae1 623e
00000280: f8a8 67be 2833 3cbd 6257 bdbe e997 d9bd
00000290: 7dc6 e73c 943f edbe 020d d8bb f4d5 12be
000002a0: 2293 f5be 8fa9 fe3d b58e ddbd e5ea e3bd
000002b0: 76b2 983e 1a1d e4bd 5fcf c93d b240 51be
000002c0: 6520 bd3b d998 c6bd 81b4 a43d e37b b5be
000002d0: cb7e 9a3c da3c a9bd 2332 3f3e 48be a1bd
000002e0: fb41 0cbd b17d 2f3e fa6b 03bd 3a20 8cbd
000002f0: 3464 0fbe 5b90 8abd bc9c 64be 0eba b8be
00000300: 191f 5abd 4282 25be 5566 4b3e 3557 0bbe
00000310: dc62 c93d 02e2 753e fae8 763e 35d8 b3bc
00000320: b826 c4bc 1489 2ebe b93a 013e 130b 183c
00000330: d17b ca3e c185 59bd 855f b3bd 1f09 da3e
00000340: 3b8e 86bd af35 7cbe fedf 95bd 3e89 1bbf
00000350: 8a9b 683e 3625 cc3e 7b8f 01bc bb85 a33d
00000360: 6cf4 eb3c faa0 cf3e 1591 21bd 927a 85be
00000370: ef48 eabd e772 06bd 3741 8fbd 0b7d a2bd
00000380: 4ad6 4dbe c4b3 963b fc21 c0bd ae0a 5bbd
00000390: 91f9 5abe 4dba 943e cf3c a0bd dab8 e0be
000003a0: e672 853b ad18 093d 5746 90bd f317 dd3d
000003b0: 3e8a 71bc 9fa1 6dbe f95d 31bd 9684 e93e
000003c0: 15cc a2be 97f4 79be 2323 2b3c cf02 07be
000003d0: 5299 3abf cc31 193c 0b07 86bd f390 8d3c
000003e0: 5258 113f 8dbe 1e3d a116 6fbc bd16 99bd
000003f0: 9ec0 78be 750b 9cbd 5280 87be 14b6 ec3e

weight f4 [2, 256]
0.040840965 0.51433665 -0.060384776 -0.006783306 0.28758156 -0.023947394 0.10749672 0.08569817
0.10138072 0.030977607 -0.52691686 -0.32582223 -0.12768002 -0.9000069 -0.014950062 -0.55032384
-0.012390904 -0.17322123 0.35262644 -0.16362748 -0.12478579 0.1763606 -0.6580841 0.2296755
0.9889098 -0.22150747 -0.02696145 0.13038272 -0.025178272 0.29565722 0.148574 -1.395428
0.19143447 0.056440394 -0.24335141 0.49044147 -0.011340569 -0.010182157 0.38249573 -0.32215285
-0.5855239 0.7366944 0.5449937 0.018378748 -0.4082055 0.5176641 -0.9292143 -0.08700963
-0.47899643 0.015515868 -0.022317817 0.061311465 -0.029617595 0.33044612 0.3410276 -0.052744884
0.3811276 -0.022715945 0.03102925 -1.3538587 -0.7999599 -0.17073812 -0.018506547 -0.53522384
0.4397789 0.38174728 0.42161566 -0.9672038 -1.1908102 0.37366354 0.85463226 -0.04214034
-0.17435141 -0.20369184 0.15315695 0.478709 -0.05114726 -0.015615044 0.28442588 -0.0277168
-0.30517572 -0.64237434 0.034968767 0.44570628 -0.5064477 -0.037391674 -0.5007844 -0.110197715
-0.24360734 0.4742108 -0.00835835 0.035481185 0.70397985 0.06174675 -0.15389705 0.56642526
-0.0032938793 -1.135063 -0.43945464 0.6473821 -0.40546244 0.3473585 0.025303327 -0.004041147
0.4129996 -0.07256836 -0.0005222967 0.009701734 -0.0067452234 -0.26700568 0.30864698 -0.1530976
-0.44647786 0.008689053 0.035270434 -0.48205027 -0.0014955918 0.6206222 -1.1288441 1.2152175
-0.3129899 0.5849082 -0.49919155 0.5005095 0.0020531863 0.2874016 -0.3496075 -0.18975061
-0.051981278 0.37261632 0.6498573 -0.92346644 -0.6986282 0.30523047 0.01715672 -0.94802034
-0.17866349 0.2590614 0.4835256 -0.2881139 0.046131544 0.90127623 -0.01673456 -0.027255464
0.32738614 -0.42437905 0.046148207 -0.003822753 0.5516714 0.761026 0.2814649 -0.23317046
0.24077894 0.38932657 0.57276195 0.02512543 0.32838675 -0.025873162 -0.35197613 -0.37118846
-0.5944874 -0.19719182 0.96539044 -0.02664506 0.33612737 1.0304934 0.31922156 -0.308359
-0.30048496 0.311558 -0.95782375 -0.19848397 0.4676151 -0.046231408 0.3951895 0.4088487
-0.27128804 0.0092015555 -0.7241697 -0.41684976 0.44755316 0.12647551 0.5413134 -0.17408685
0.20440519 0.08535338 -0.05561526 0.019679457 0.027135015 -0.6273158 -0.7971276 0.004723336
-0.011790049 0.44737765 -0.3833653 -0.099498615 -0.18533361 -0.15964942 0.32388943 0.045538493
-0.005768079 0.4639981 0.11926287 -0.00783447 -0.6003789 0.25738502 -0.44842067 0.46260807
0.042033616 -0.48499256 -0.02306897 0.35983703 -0.3054161 -0.29757202 0.40334392 -0.046222236
0.35977033 0.5321498 -0.029013602 -0.38815558 -0.0018838568 0.027817158 0.034656126 -0.054520667
0.6506384 0.37778464 -0.0047847843 0.25873065 -0.1803113 0.4608015 0.31493077 0.3708948
-0.0116263935 -0.03645545 0.05840772 -0.44124445 -0.009568012 -1.6060411 -0.00067900645 -0.20940222
-0.54961747 -0.16936003 -0.23012182 -0.7837091 -0.24359514 -0.24596426 0.003614742 -0.4435225
-0.17965545 0.36330664 -0.0008399102 0.66802853 0.12993321 -0.008504708 -0.028555114 -0.3869376
00000000: db48 273d 91ab 033f 0756 77bd 7f46 debb
00000010: e43d 933e 532d c4bc 3e27 dc3d 8682 af3d
00000020: b2a0 cf3d c0c4 fd3c 06e4 06bf 2cd2 a6be
00000030: 8dbe 02be da66 66bf 1bf1 74bc 06e2 0cbf
00000040: 3803 4bbc e860 31be 748b b43e f68d 27be
00000050: b18f ffbd e097 343e 3378 28bf 0e30 6b3e
00000060: 3129 7d3f dbd2 62be 42de dcbc 0c83 053e
00000070: aa42 cebc 6260 973e c823 183e 629d b2bf
00000080: 6607 443e 0b2e 673d 1d31 79be 251b fb3e
00000090: cbcd 39bc 10d3 26bc 7bd6 c33e 38f1 a4be
000000a0: e5e4 15bf 0198 3c3f b584 0b3f 078f 963c
000000b0: 5000 d1be a285 043f fde0 6dbf 1b32 b2bd
000000c0: 053f f5be 4436 7e3c dbd3 b6bc bb21 7b3d
000000d0: 99a0 f2bc 3c30 a93e 2b9b ae3e 050b 58bd
000000e0: 2823 c33e ca16 babc 0e31 fe3c 3e4b adbf
000000f0: 2cca 4cbf f9d5 2ebe 0b9b 97bc 6e04 09bf
00000100: b32a e13e 6174 c33e 02de d73e ab9a 77bf
00000110: 786c 98bf d450 bf3e 2ec9 5a3f 599b 2cbd
00000120: 2d89 32be 9894 50be 2dd5 1c3e 5919 f53e
00000130: ca7f 51bd 3ed6 7fbc 45a0 913e 580e e3bc
00000140: fe3f 9cbe a572 24bf 693b 0f3d 9d33 e43e
00000150: 8ea6 01bf 0328 19bd 6833 00bf 57af e1bd
00000160: 3474 79be c2cb f23e 76f1 08bc b854 113d
00000170: 0638 343f 29ea 7c3d 3097 1dbe 3f01 113f
00000180: 20de 57bb bf49 91bf 3300 e1be d5ba 253f
00000190: c698 cfbe f9d8 b13e ec48 cf3c 996b 84bb
000001a0: af74 d33e b89e 94bd bdea 08ba 06f4 1e3c
000001b0: 0907 ddbb f8b4 88be fa06 9e3e 9ec5 1cbe
000001c0: bf98 e4be 885c 0e3c bb77 103d 4bcf f6be
000001d0: bc07 c4ba 19e1 1e3f f77d 90bf 3f8c 9b3f
000001e0: 3640 a0be 8bbc 153f 0996 ffbe 6421 003f
000001f0: c08e 063b 4d26 933e c1ff b2be fc4d 42be
00000200: 52ea 54bd 91c7 be3e 0c5d 263f 4c68 6cbf
00000210: 4cd9 32bf 2b47 9c3e 408c 8c3c 76b1 72bf
00000220: 90f3 36be b2a3 843e ab90 f73e aa83 93be
00000230: 6ef4 3c3d 0aba 663f ea16 89bc da46 dfbc
00000240: 289f a73e 3648 d9be e705 3d3d 2787 7abb
00000250: 563a 0d3f 9ad2 423f 2b1c 903e 3dc4 6ebe
00000260: c18e 763e d055 c73e 87a0 123f d9d3 cd3c
00000270: 4f22 a83e f4f3 d3bc 3736 b4be 6a0c bebe
00000280: 5430 18bf a7ec 49be d423 773f be46 dabc
00000290: e318 ac3e 35e7 833f 0271 a33e 3be1 9dbe
000002a0: 2ad9 99be 8884 9f3e f033 75bf 623f 4bbe
000002b0: 3f6b ef3e 255d 3dbd 4756 ca3e 9e54 d13e
000002c0: 44e6 8abe 1fc2 163c 2f63 39bf 556d d5be
000002d0: b025 e53e cc82 013e 8493 0a3f d343 32be
000002e0: 984f 513e c1cd ae3d d4cc 63bd d036 a13c
000002f0: 404a de3c c597 20bf 8e10 4cbf 37c6 9a3b
00000300: 0d2b 41bc af0e e53e 7548 c4be eec5 cbbd
00000310: 18c8 3dbe 237b 23be d6d4 a53e 9286 3a3d
00000320: 2702 bdbb 2991 ed3e 1740 f43d 265c 00bc
00000330: 6eb2 19bf f8c7 833e 6597 e5be f7da ec3e
00000340: 712b 2c3d f250 f8be 23fb bcbc 8f3c b83e
00000350: 805f 9cbe 5c5b 98be 1883 ce3e 8753 3dbd
00000360: d133 b83e f83a 083f efad edbc 54bc c6be
00000370: bfeb f6ba cfe0 e33c 95f3 0d3d 1051 5fbd
00000380: 3d90 263f fd6c c13e aec9 9cbb 5878 843e
00000390: 87a3 38be 2dee eb3e 9b3e a13e ece5 bd3e
000003a0: a17c 3ebc 4f52 15bd ef3c 6f3d cbea e1be
000003b0: 27c3 1cbc c192 cdbf 5aff 31ba 896d 56be
000003c0: bbb3 0cbf b76c 2dbe 0ea5 6bbe 29a1 48bf
000003d0: 0171 79be 0ede 7bbe 4fe5 6c3b 6215 e3be
000003e0: 99f7 37be 5403 ba3e 6b2d 5cba eb03 2b3f
000003f0: 360d 053e 5557 0bbc 6aec e9bc af1c c6be

bias f4 [2]
0.32850525 0.079024166
00000000: d731 a83e 6cd7 a13d

weight f4 [2, 256]
0.011112711 -0.1373997 -0.108577155 0.011132817 0.4314509 -0.038127806 0.013232216 -0.17324193
-0.027060786 0.056532092 -0.058871146 -0.09211476 0.055540208 0.07390891 0.014228816 -0.055157512
-0.033711404 0.078521185 0.01713706 -0.097510934 -0.23951605 0.10179668 0.06716182 -0.08078766
-0.17543307 -0.02325752 -0.03986351 0.082540356 -0.011646866 0.04577675 -0.17874332 0.10740504
-0.15513977 0.05452064 0.6031045 0.10798259 -0.013437615 0.03737702 0.20844436 0.11244555
0.25774115 0.25351164 -0.062930495 -0.057921246 -0.02294228 0.13946415 0.42206016 -0.19969471
0.05436884 0.02447205 0.028708765 -0.023079488 -0.009298908 0.048683383 0.25076422 0.13140586
-0.00900014 0.11893504 -0.0059506805 -0.07046015 0.046011493 -0.12996031 0.07402299 0.27093622
0.020116711 -0.10141282 0.04942987 0.08112378 0.039166413 -0.10899185 -0.25933927 0.054371785
-0.10997152 -0.21645808 -0.06431897 -0.00025482132 0.011083579 -0.009857602 -0.14420533 -0.0026219534
0.03800319 -0.22538175 0.042848375 0.054043055 0.33692607 -0.029481225 -0.10783861 0.028994057
-0.21307683 -0.08826246 0.059479933 0.02322027 0.06653435 0.12515134 -0.023114044 0.19828779
0.007548857 0.39314783 0.30182403 0.04762389 0.23127402 -0.03336368 -0.013667575 -0.008608851
0.06638697 -0.09459655 -0.0009964746 0.010543863 0.038429406 0.021459332 -0.5670765 0.03723789
-0.10648832 0.04805759 -0.10557755 0.40260786 -0.0296852 -0.11245062 0.31250772 -0.01850032
0.49916062 0.009720031 0.3334984 0.010767747 0.00042280176 0.10244753 -0.09850576 -0.045814354
-0.061782368 0.034971304 0.0038505667 -0.009625801 0.13017699 -0.12444923 0.031243393 -0.6137813
0.03971298 0.5518821 0.11508279 0.15495557 -0.0017821298 0.014133916 0.036094848 -0.0044571185
0.19940124 0.035685837 -0.05755477 0.0048492085 0.0012119514 0.028559199 0.11524347 -0.009167552
-0.12252812 -0.08550267 0.18141976 0.018982861 0.10693216 0.07313172 0.15599668 -0.03990231
-0.10174574 -0.0361797 0.13599347 0.007860829 0.07883563 0.13523957 0.046487056 -0.066926286
0.08705285 -0.06631468 -0.27099133 -0.057089794 -0.10493009 -0.041052353 -0.15433493 -0.0026325975
0.0056210174 0.069697656 0.10683137 0.1764059 -0.24817723 0.0573799 -0.031196333 0.10304904
-0.063800216 -0.011025797 0.03250188 -0.032789867 0.013294245 0.09334593 0.6817176 0.013401224
-0.024583876 -0.04896872 0.07810563 -0.20184225 0.20551506 0.29982474 0.29404488 0.03107528
0.00925639 -0.07314025 0.036605515 -0.014154955 0.010877071 0.020535136 -0.06815929 0.46199968
0.011078369 -0.050464533 -0.026101917 0.064575166 -0.17172572 0.031574298 0.0006204162 -0.07127889
0.0035917119 -0.033165365 0.0017220317 -0.19686502 0.041351847 0.031941798 0.024842104 -0.05999652
0.009953469 -0.26636702 -0.006175582 0.05718927 -0.27863687 -0.19376111 0.263009 0.024101537
-0.031690452 -0.008540851 0.037886336 -0.1969468 0.038524322 0.45254272 0.22248149 -0.12231107
0.1249506 0.062872484 -0.19545615 0.08894185 -0.00783122 -0.020417115 0.015590262 0.07656826
-0.23539992 -0.52408427 0.07287532 0.5887278 -0.16560493 0.021889612 -0.096526854 0.024373028
00000000: 1712 363c 82b2 0cbe b35d debd 6b66 363c
00000010: 22e7 dc3e e72b 1cbd f0cb 583c 5566 31be
00000020: 95ae ddbc 328e 673d df22 71bd aaa6 bcbd
00000030: 217e 633d 8e5d 973d fb1f 693c d8ec 61bd
00000040: f814 0abd b7cf a03d 0563 8c3c d0b3 c7bd
00000050: b243 75be c77a d03d 238c 893d 0074 a5bd
00000060: baa4 33be 8e86 bebc eb47 23bd eb0a a93d
00000070: 7fd2 3ebc 6780 3b3d 7d08 37be 2cf7 db3d
00000080: f6dc 1ebe 0951 5f3d 0e65 1a3f fa25 dd3d
00000090: 7129 5cbc a518 193d 7072 553e da49 e63d
000000a0: a6f6 833e 47cc 813e b4e1 80bd d43e 6dbd
000000b0: 73f1 bbbc b1cf 0e3e 4518 d83e c57c 4cbe
000000c0: dcb1 5e3d 9c79 c83c a52e eb3c 3211 bdbc
000000d0: 725a 18bc 3a68 473d 2b64 803e 428f 063e
000000e0: 5375 13bc 3794 f33d edfd c2bb 694d 90bd
000000f0: 8c76 3c3d 5114 05be 5e99 973d 27b8 8a3e
00000100: cdcb a43c 86b1 cfbd fa76 4a3d 3924 a63d
00000110: f66c 203d 1e37 dfbd 1ec8 84be f3b4 5e3d
00000120: c038 e1bd 30a7 5dbe aab9 83bd 8a99 85b9
00000130: e697 353c c881 21bc 90aa 13be 14d5 2bbb
00000140: 3ca9 1b3d 79ca 66be c781 2f3d 405c 5d3d
00000150: 9381 ac3e 9c82 f1bc 7dda dcbd f284 ed3c
00000160: d030 5abe f3c2 b4bd 3ba1 733d 7038 be3c
00000170: 2943 883d ac27 003e aa59 bdbc f40b 4b3e
00000180: 675c f73b ac4a c93e ae88 9a3e 4511 433d
00000190: 19d3 6c3e 5ba8 08bd f7ed 5fbc 230c 0dbc
000001a0: e4f5 873d d6bb c1bd 249c 82ba 2bc0 2c3c
000001b0: 2768 1d3d 7bcb af3c ed2b 11bf c286 183d
000001c0: 8c16 dabd 09d8 443d 0b39 d8bd 9e22 ce3e
000001d0: 602e f3bc 834c e6bd 0301 a03e fc8d 97bc
000001e0: fb91 ff3e c440 1f3c 4dc0 aa3e 346b 303c
000001f0: 7eab dd39 03d0 d13d 63bd c9bd d5a7 3bbd
00000200: 820f 7dbd 123e 0f3d ca59 7c3b 89b5 1dbc
00000210: 1e4d 053e 3ddf febd 25f2 ff3c c520 1dbf
00000220: 14aa 223d 2548 0d3f 87b0 eb3d acac 1e3e
00000230: 5a96 e9ba f191 673c 31d8 133d 050d 92bb
00000240: d72f 4c3e 502b 123d 8dbe 6bbd 1ce6 9e3b
00000250: 57da 9e3a fbf4 e93c c504 ec3d 8033 16bc
00000260: 06f0 fabd 061c afbd 1ac6 393e f281 9b3c
00000270: 40ff da3d 15c6 953d 98bd 1f3e 9b70 23bd
00000280: 1260 d0bd 2a31 14bd df41 0b3e b5ca 003c
00000290: 9374 a13d 3e7c 0a3e 3669 3e3d a610 89bd
000002a0: c448 b23d fecf 87bd 60bf 8abe fdd6 69bd
000002b0: 96e5 d6bd 8326 28bd fa09 1ebe a887 2cbb
000002c0: 8330 b83b a5bd 8e3d 68ca da3d c0a3 343e
000002d0: 2c22 7ebe 3007 6b3d 748f ffbc 600b d33d
000002e0: b0a9 82bd 8ba5 34bc b120 053d ab4e 06bd
000002f0: 1bd0 593c 272c bf3d 0b85 2e3f cf90 5b3c
00000300: 2064 c9bc 6d93 48bd d8f5 9f3d bcaf 4ebe
00000310: 8a72 523e a182 993e 0d8d 963e 9691 fe3c
00000320: 1da8 173c 8eca 95bd aaef 153d 2fea 67bc
00000330: be35 323c 4d39 a83c 1997 8bbd 398b ec3e
00000340: 0c82 353c e6b3 4ebd b0d3 d5bc fc3f 843d
00000350: ded8 2fbe 0d54 013d 6da3 223a abfa 91bd
00000360: ed62 6b3b 68d8 07bd ccb5 e13a fc96 49be
00000370: 8e60 293d 67d5 023d ab81 cb3c e9be 75bd
00000380: e013 233c 4261 88be 895c cabb 4c3f 6a3d
00000390: 7ea9 8ebe 5069 46be 1ea9 863e 9670 c53c
000003a0: d9cd 01bd edee 0bbc b42e 1b3d 6cac 49be
000003b0: aecb 1d3d aeb3 e73e 30d2 633e 3a7e fabd
000003c0: 1ae6 ff3d 4ac3 803d a825 48be 2527 b63d
000003d0: 844e 00bc cb41 a7bc 4c6e 7f3c d2cf 9c3d
000003e0: ad0c 71be 632a 06bf a83f 953d ddb6 163f
000003f0: 5794 29be d851 b33c dfaf c5bd f2a9 c73c

bias f4 [2]
-0.26393762 -1.5391556
00000000: d522 87be 0d03 c5bf
